dreamify.pth (torch, 496561 bytes, 56 tensors)

layer1.conv1.weight f4 [64, 16, 3]
00000000: c637 ccbd 69d4 18be 209d 093e 5fc5 48bd
00000010: 7647 023d 4648 f0bc 2ef2 713d 1850 1e3d
00000020: 64aa 7d3c a865 973d 0a53 203c 1764 c8bd
00000030: 30e7 f4bd e91f 12bd 19cf c7bd 67f9 183e
00000040: 6507 0a3d 2b62 e9bd 4ec7 02be cb44 503d
00000050: 950b 883c 2a0b babc a1f6 30bd 59ff b13d
00000060: 6161 0c3e 2345 c9bd 77ac ef3d fd93 c73d
00000070: bfd0 5dbc aefc 023e 8617 bfbd 97bf 093e
00000080: f4fa 0c3e 0213 0abe a053 f0bd e1d6 673d
00000090: da02 e43d a803 b13d 49e1 943d f8b4 003d
000000a0: f5fa 6d3d 6ac8 4ebd 7f4f bcbd a845 cdbd
000000b0: b7ea 513d f306 a83d 2288 123d 574f 063e
000000c0: a7f9 04be aaf3 a4b9 1285 1bbd f2cc b3bd
000000d0: 7f62 bdbd 69d1 06be 987e aabd 0ab9 09be
000000e0: 96b3 e4bd 95b6 ea3d 296d 013e 052d 10bd
000000f0: 7ce3 e83d 6ac1 fcbd c015 49bd d672 16bb
00000100: ab34 a93d 71ca ac3c ccd1 0d3e 9056 813d
00000110: f195 b93d 1fdd a4bd 019b 96bb 731d 60bd
00000120: d911 7d3d fc8f f2bd 9102 0cbe d77a c33d
00000130: 975a a8bd 2509 e7bd 2d33 ce3c ca86 e7bd
00000140: 73b6 36bd db68 5ebd 6cbb 403c 2d8b 0e3e
00000150: a215 803c 2faa de3c dc6f b93d 936c c3bd
00000160: df15 1ebd 6a8a 013d 293e 5fbd eaa8 cebd
00000170: e3eb b0bd 496b 8d3d c446 94bd 3f44 dd3d
00000180: 20e0 7f3d ef9b d9bd f061 523d c246 20bd
00000190: 7500 e8bc be34 b33d d130 c93d 74a7 043d
000001a0: 9191 97bd 29a1 9fbd a034 e53d 2745 f5bd
000001b0: 0a74 593c 34b5 a73d d261 073c 4c85 e33c
000001c0: 4921 a3bd 1114 003d ea74 453d 0199 fd3d
000001d0: 4817 edbd bdc7 ebbd 879f 46bd c0cd 45bd
000001e0: 8f0c f4bd 8332 b8bc b505 513d f976 2b3d
000001f0: 670b 0b3e 9943 05be 302a 633d 5085 bcbd
00000200: 7d02 013e 465b 103d c8d1 0cbd 15b1 003e
00000210: 1dbf ea3b 373a a93d 8e34 d43d 4b38 cdbb
00000220: cb93 dabd d3ca dabc c83b 083d 1aa4 4cbd
00000230: b95b a03d c73b 33bd 1708 c13c cc98 ea3d
00000240: 1ca9 e53c c41a 05be 585b a33d d13b 09be
00000250: 0bea 05be cf9a 15bd fc14 963d 7db4 703c
00000260: df3f 88bc afc6 02be c5b7 023e 151c 0d3e
00000270: 18de d1bc 77c4 f6bd 907b b83c 01ea 083e
00000280: fd84 143e 3e4a de3d 2e6c c23d f62b db3d
00000290: 3574 7bbd 1b93 b23d 50ef c5bd 1ec9 f2bd
000002a0: c55f e53d d134 90bd c8c8 00be 9eba 90bd
000002b0: 9dcb 91bd cc3c 09be 6712 f0bd 9108 04be
000002c0: 6fc6 e53c 8be5 c13c 9682 b8bc 7c5a 03be
000002d0: 2e71 a5bd 7071 043e f75e d5bd 47fe 84bc
000002e0: 6258 5dbd d745 273c b1d9 893d ed0e c23d
000002f0: 2b86 0c3e f332 d13d 9d73 453d ced4 043e
00000300: 896d 10be b670 eebd 8ed9 e83d 6071 b7bd
00000310: 1c35 bebd 6f4e f43b 6b3b 203d 2456 d33d
00000320: 81c6 0b3a 1e96 fc3d f426 fa3d 1cc1 6bbd
00000330: 020b fabd f353 9abd c950 c13d b5ca 88bd
00000340: cbee babd 18e7 a6bd 8b5c 0d3e 9047 fbbc
00000350: fedc a33d 5779 c3bd 5cdd 7ebd a19f ccbc
00000360: 3a2f 0abe 7112 113e 6a24 bd3d 8258 4bbd
00000370: 9c19 053d 605a 9ebd 71c4 dcbd 6a8b 09bd
00000380: e4e9 babd f1d0 f4bd 8ab4 cbbc e32a d5bc
00000390: 4907 7f3d 849d 683c 4c18 e2bd 9ce7 dc3d
000003a0: b89e 573d 1256 3ebd bce6 1f3c 493d e73d
000003b0: bf40 a8bc 4f1d b63d b50e dabb 20eb 08be
000003c0: 1262 b53c 4c28 9bbd a038 0b3e 9b15 9b3d
000003d0: 3481 c73a 6810 bbbd ba2e 6abd e8e3 ed3d
000003e0: c6fd fcbd 9950 ce3d ddcf 173e f7d7 8e3d
000003f0: 357d 46bc 5010 e93d 5ef6 10be ec5a cebd
-0.099715754 -0.14924778 0.13438845 -0.049016353 0.03180643 -0.029331338 0.05906885 0.038650602
0.015482519 0.07392436 0.009785423 -0.097847156 -0.11958158 -0.035674963 -0.097562976 0.1493889
0.03369846 -0.11395677 -0.12771341 0.050846856 0.016607085 -0.022710402 -0.043203954 0.08691282
0.13709022 -0.0982764 0.11702817 0.097450234 -0.0135385385 0.12791702 -0.093306586 0.13451992
0.13767606 -0.13483813 -0.117347 0.05660141 0.111333564 0.086432755 0.07269532 0.031422585
0.05810066 -0.0504841 -0.0919485 -0.100230515 0.051249232 0.082044505 0.035774358 0.13116203
-0.1298586 -0.0003146206 -0.037968703 -0.087793246 -0.09247302 -0.13165821 -0.08324927 -0.13449493
-0.11167066 0.11460606 0.12639298 -0.035199184 0.11371514 -0.12341578 -0.049093008 -0.002295663
0.08261999 0.021092625 0.13849562 0.063153386 0.09061802 -0.08049988 -0.0045961146 -0.054715585
0.0617846 -0.11843869 -0.13672854 0.09544914 -0.08220404 -0.11281041 0.025170887 -0.11305006
-0.04460759 -0.054299217 0.011763435 0.13920279 0.015635315 0.02718076 0.090545386 -0.09542193
-0.038595077 0.031626143 -0.05450264 -0.100908116 -0.08638742 0.06905229 -0.0724006 0.108040325
0.0624696 -0.10625445 0.05136293 -0.03912998 -0.02832053 0.08750294 0.09823764 0.03238626
-0.074008115 -0.07794411 0.11191678 -0.119760804 0.013272295 0.08188859 0.008263068 0.027773522
-0.07965333 0.031269137 0.0482072 0.12382699 -0.11576706 -0.115127064 -0.04849198 -0.04829192
-0.11916458 -0.022485023 0.051030833 0.041861508 0.13578568 -0.13014068 0.055460155 -0.09205115
0.12598605 0.035243295 -0.03437975 0.12567551 0.0071638958 0.08263057 0.103615865 -0.006262814
-0.106727205 -0.026708042 0.033260137 -0.049961187 0.07829995 -0.04375818 0.023563428 0.11454925
0.02803474 -0.12998492 0.07976407 -0.13401724 -0.13077562 -0.03652459 0.07328221 0.014691469
-0.016632019 -0.12771104 0.12765415 0.13780244 -0.025618598 -0.120491914 0.022519857 0.13370515
0.14503856 0.10854004 0.0949329 0.10701744 -0.06139012 0.087194644 -0.09664786 -0.11854766
0.11199907 -0.07041324 -0.12576592 -0.070668444 -0.07118914 -0.13402098 -0.1172226 -0.12893893
0.028048722 0.023669025 -0.022523206 -0.12827486 -0.08078228 0.12933898 -0.10418504 -0.01623453
-0.054039367 0.010209522 0.067309745 0.09475503 0.13723056 0.10214796 0.04820596 0.12971804
-0.14104284 -0.11642592 0.1136962 -0.089571714 -0.092874736 0.007455639 0.039119165 0.103191644
0.00053320086 0.1233332 0.12214461 -0.05755721 -0.12209131 -0.07535543 0.09439237 -0.06679288
-0.091275774 -0.081495464 0.13804834 -0.030673772 0.08001135 -0.09544628 -0.062222824 -0.02497846
-0.13494578 0.14167191 0.09235461 -0.049644955 0.032495126 -0.077320814 -0.10779656 -0.03358022
-0.09126642 -0.11953915 -0.024866361 -0.026021427 0.062262807 0.014197711 -0.110397905 0.107863635
0.0526416 -0.0464688 0.009759601 0.11290986 -0.020538686 0.08892309 -0.0066545852 -0.13370943
0.02214149 -0.075760454 0.1359582 0.0757248 0.0015221001 -0.091339886 -0.05717347 0.11615735
-0.12353091 0.100739665 0.14825387 0.06974786 -0.012114813 0.113800645 -0.14156482 -0.10075936

layer1.conv1.bias f4 [64]
00000000: e9ba 823d c4d6 91bd 7526 9abc 17ea f5bd
00000010: de6f 9dbd 5ef7 7bbc a6c8 d63d 956b 5d3d
00000020: e2d7 ff3c 53f2 ee3d 1db5 fbbc 2033 df3c
00000030: 20a1 0d3e 7ea8 42bd d22e 90bd 3657 f9bb
00000040: c0ec b7bd 8c14 943d 04cb 89bc 4f0c a13d
00000050: f17a ff3d 8696 9cbd 643e 11be b60e 0c3e
00000060: f204 6c3d 977a 54bc 0399 02be 604a 0ebe
00000070: 726d 01be 05d9 633d 885d f7bd 89ef c43d
00000080: dcf2 d9bd 5bdb 8dbb 9c1f b3bc fa8a d83d
00000090: 6349 ef3d f6bb e53d de68 adbd 2a78 36bd
000000a0: d008 093d 00c5 d5bd 7df7 48bc f21d 113e
000000b0: b87a 93bd 2bbb 12be 4636 883d 7a85 0fbd
000000c0: 0a92 a53d 242b 48bc b459 253d c8bd eabd
000000d0: cc18 d13d 2bd9 a23d 94f2 89bd 6f89 2b3d
000000e0: 7623 c93c 050c a43d 8bd2 8b3d 7682 20bd
000000f0: 1841 57bd cbaf 003e 240c cdbd 2cab 7bbb
0.063833065 -0.071210414 -0.018817166 -0.1200754 -0.076873526 -0.015378801 0.104874894 0.054057676
0.03123087 0.116673134 -0.03072601 0.027246058 0.13830996 -0.047523968 -0.0704018 -0.0076092733
-0.08980703 0.072304815 -0.016820438 0.07863676 0.12474621 -0.076458976 -0.14183956 0.13677487
0.057621904 -0.012968681 -0.12753682 -0.1389556 -0.12639406 0.055626888 -0.120783865 0.09616
-0.10642025 -0.0043291277 -0.021865658 0.10573383 0.11683919 0.11217491 -0.084672675 -0.04454819
0.03345567 -0.104379654 -0.012266037 0.1417158 -0.07201141 -0.14329211 0.06650977 -0.035039403
0.08084495 -0.012217317 0.04036875 -0.11461979 0.10209808 0.07951578 -0.06735721 0.041879114
0.024553042 0.08010105 0.06827267 -0.039186917 -0.052552313 0.1256706 -0.10012081 -0.0038401587

layer1.conv2.weight f4 [64, 64, 3]
00000000: 36d6 19bd 5d2f a8bc da7c 2c3d ecef 08bd
00000010: 803e 883a b90c 31ba 597e 603d 8cd9 9b3c
00000020: 7ed3 90bd a96f 4dbc b017 fabc 7d85 373d
00000030: 4bd6 d63a da13 1fbd 16ea 0c3d 01d0 6c3d
00000040: 5deb 883d ef12 ee3c e856 563d f1d5 073d
00000050: 3c04 5cbd 8d65 adbc f3b5 e5bb f24c 123d
00000060: e833 b8bc 1666 283d 1fc1 3b3d aba9 563d
00000070: 822a 34bc 3a3b 063d 8c6b 9bbd 19ea a13c
00000080: b96a f3bc 5cab 883c 0c2a 333d 1f9e 983d
00000090: 6ddc 76bd ffda 8e3c d641 743d d30b 12bd
000000a0: 6075 ec3c d92d 893d 7cb9 853d 645b 82bd
000000b0: 030d 7a3d 5a90 c03c 7220 3fbd 65a5 d33c
000000c0: 902e b5bc f19c 82bd e178 dbbc fd22 84bd
000000d0: fb3f 5c3d 8e75 16bc 73dd a1bd 92b6 483c
000000e0: 6929 b7bb 18d9 52bd 4d9f 0cbc 85cd 1abd
000000f0: 99d6 983d 738e 2cbd cb09 7bbd 3604 34bb
00000100: f133 0c3d 70f9 34bd 6ecc 29bd 67c1 693d
00000110: 313b 413d 31c7 793d 1ec2 5abb 8d64 91bd
00000120: 6982 c7ba af84 1d3c c609 e33b 83a6 debb
00000130: 3b20 42bd 918f 01bd 7eb8 54bd 5b13 97bc
00000140: 5cd1 e3ba b6f4 42bd 6c41 33bc 726b 25bc
00000150: 2be6 f2bc 7379 053d 146c 833d f56a 57bd
00000160: e1b5 443d 18b3 54bd 1e36 3cbd 4c8e 6ebd
00000170: c5e4 37bd 3fbc 663d e3b5 1b3d 26eb 503c
00000180: a8d8 40bd c836 633d e54a 853d c43f 45bd
00000190: 7337 a13d 619d aa3c 2c05 84bc a1aa 2e3c
000001a0: 97c4 d4bc 08f4 963d 54a6 51bd 0799 36bd
000001b0: 62d2 b63c 51db e43c 062f 963c 3ae3 653c
000001c0: 7b46 65bd 1eb6 933d 9e79 fcbc 92f0 8ebb
000001d0: 5786 66bd 2dce 033d 6c14 2a3d 88bc 163d
000001e0: 2a35 a4bd f59a 1a3d a2fb f5bb ad8c 203d
000001f0: a111 2ebd ce77 eb3c 7386 99bd a03e 2dbd
00000200: bcb1 43bd 8f0e fa3c ce4e 80bc bc6b 81bd
00000210: f929 0a3b 44a5 3abc 6851 063d 612f 65bd
00000220: 985b 673d 69d4 78bc 0cb6 923c ff0b a33d
00000230: 9a52 ddbc fed3 85bb 8861 123d 70eb 56bd
00000240: 88bb 573c 00ce a53c c054 533d 8da4 b2bc
00000250: d2d3 913d bab3 1fbd 3e03 aabb 6412 753d
00000260: b12e 943c b69c 3a3d d82b 713c 4b26 2fbd
00000270: d615 a0bb fafc 843d 3ee0 c23c af2a 37bc
00000280: 1cd8 65bd 9d11 a23a b45e 023c 4a52 82bc
00000290: 4429 4ebb 2885 55bd e7fe e2bb e7a9 6b3d
000002a0: a688 f1bb 088e a6bb 8975 2c3d 3c5e a43d
000002b0: dafb 1f3c 2b51 38bd 1749 603d 19e2 abbb
000002c0: 0914 933c dee2 5bbd 9b47 f9bc 99ac 8b3d
000002d0: ae41 663d b070 68bd 5bf2 07bd ec38 2ebd
000002e0: f1be 14bc 3865 803d aa8a 6fbd d2df f7b9
000002f0: 356f 783c c65f 4a3d ead0 cdbc afa1 6dbd
00000300: 2165 73bd 0e6d b83c 24bd 723b 30d1 47bd
00000310: c085 e9bc 1c6e b8bc 8190 01bd c3a9 193c
00000320: 7d83 66bb 220c a1bc e393 6e3b ad66 26bd
00000330: ac41 eabc 1424 693c 8911 443d 7923 1a3d
00000340: e514 0dbd 83f9 1f3c a48f 033d 0628 3c3d
00000350: 3d89 863d e722 5bbd 551c 5a3c 5ff7 69bd
00000360: f6bf 4ebd 30fb bf3c 9e92 1c3b 6a59 0a3d
00000370: 4165 97bd df5c 63bd fd27 1dbd 8f02 b83a
00000380: e6d9 aabb 97bb 2fbd 1492 03bd 064f 52bc
00000390: 1d84 9a3d 954f 34bd 1d66 a03c 4b9c 6abd
000003a0: eee6 77bd b76a 82bd a009 833d 480b 583d
000003b0: 4425 413d 2f41 69bd 5419 90bd f2b8 32bc
000003c0: eb56 d73c 50df 85bd 3090 073d 5ac0 69bd
000003d0: e32b 443d bc03 7b3d 3572 753d d401 193c
000003e0: d7d6 6dbd 6150 7d3d 7e14 113d ef3c 2b3d
000003f0: 11a4 403c a24d 7bbd 7c7f 923d 6ef8 493c
-0.037557803 -0.020530397 0.042111255 -0.033431932 0.0010394603 -0.000675391 0.054807995 0.019024633
-0.07071589 -0.012538829 -0.030528873 0.04480504 0.0016390769 -0.03883729 0.03440293 0.057815555
0.06685517 0.029061763 0.052328974 0.033163015 -0.053714976 -0.021166587 -0.0070102154 0.035717912
-0.022485688 0.04111298 0.04583847 0.0524079 -0.010996463 0.032771327 -0.07588872 0.019764947
-0.029713975 0.016683273 0.04374127 0.07452034 -0.06026881 0.01743841 0.0596331 -0.035655808
0.028864563 0.06698198 0.06529519 -0.06365088 0.061047565 0.023506332 -0.0466618 0.025835702
-0.02211693 -0.063775904 -0.026791038 -0.06451986 0.053771954 -0.009183301 -0.07903566 0.012250559
-0.0055896533 -0.051476568 -0.008582902 -0.037793655 0.07462806 -0.042128038 -0.061288636 -0.002746833
0.034229223 -0.044183195 -0.041454725 0.05706921 0.04717559 0.06098098 -0.0033379863 -0.07099257
-0.001522136 0.009614154 0.0069286553 -0.006794752 -0.04739402 -0.031631056 -0.051933758 -0.018441847
-0.001738112 -0.047596656 -0.010940891 -0.010096418 -0.029650768 0.032586526 0.06417099 -0.052592237
0.048025016 -0.05192861 -0.045950048 -0.058241174 -0.044895906 0.05633187 0.038015258 0.012751376
-0.04708162 0.055472165 0.065084256 -0.048156515 0.07871904 0.020826997 -0.016115747 0.010660798
-0.025972648 0.07370764 -0.051184013 -0.044579532 0.022317115 0.02793661 0.01833297 0.014031226
-0.05597542 0.072124705 -0.03081971 -0.0043621743 -0.05628046 0.032179046 0.041523382 0.03680089
-0.08017953 0.037745435 -0.0075068036 0.03919666 -0.04249728 0.02874365 -0.07496347 -0.042296052
-0.047776923 0.03052452 -0.015662577 -0.06319377 0.0021082147 -0.011391941 0.03279248 -0.055953387
0.056483835 -0.015187361 0.017909072 0.079612724 -0.027016927 -0.0040841093 0.035737544 -0.052470624
0.0131672695 0.02023983 0.051594496 -0.02180698 0.0712048 -0.03898976 -0.005188375 0.05983199
0.01808867 0.045559607 0.014719926 -0.04276113 -0.0048854155 0.06493564 0.023788568 -0.01117961
-0.0561143 0.0012364868 0.007957149 -0.01590838 -0.0031457702 -0.05212894 -0.0069273594 0.05753508
-0.007371026 -0.0050828494 0.042104278 0.08025786 0.009764636 -0.044999283 0.054757204 -0.005245459
0.01795389 -0.053683154 -0.030429652 0.0682003 0.05621498 -0.056748092 -0.033190113 -0.042534754
-0.009078727 0.06269306 -0.05848185 -0.0004727827 0.015163233 0.049407743 -0.025124032 -0.05801552
-0.059422616 0.022512939 0.0037039006 -0.04878348 -0.02850616 -0.022513442 -0.03163195 0.009378853
-0.0035173588 -0.019659106 0.0036404065 -0.040625263 -0.028595768 0.014229793 0.047868285 0.037631486
-0.034443755 0.009764078 0.03211941 0.045936607 0.06569145 -0.053500082 0.013312419 -0.057120677
-0.050476037 0.023435205 0.0023891102 0.03377668 -0.073923595 -0.05550849 -0.038368214 0.0014038848
-0.005213964 -0.04290351 -0.032121733 -0.0128362235 0.0754473 -0.044021208 0.019579941 -0.05727796
-0.060522966 -0.063680105 0.0639832 0.052745134 0.04715468 -0.05694693 -0.07036081 -0.010908352
0.026286563 -0.06536734 0.033096492 -0.057068206 0.047893416 0.06128286 0.05992337 0.009338815
-0.058066215 0.061844233 0.035419933 0.041806158 0.0117578665 -0.061353333 0.07153222 0.012327297

layer1.conv2.bias f4 [64]
00000000: 6daf 8a3d e076 35bd f4a3 68bd 8dd5 7d3b
00000010: d57f 1d3d f44b 543b 6a75 cc3c eb65 91bd
00000020: 48ed 8bbd f156 8bbc 041d 86bc 2f67 003d
00000030: 5528 653d b473 70bd fd74 04bd 948f 46bd
00000040: 1a75 b7bc da25 713d 4f0b 443d c8c4 88bb
00000050: 00e6 c83b 7e8b 88bb b485 13bd ae20 54bd
00000060: 8a22 e03a 081e 73bc b34b c3bc e49c c23b
00000070: 73ca 59bc a84a 05bd ce14 b2bb 1858 4ebd
00000080: 0ae9 1c3d 1167 943c e506 3abc da20 1a3d
00000090: 4226 623d 09e3 26bd e2a3 8b3d f76a 02bd
000000a0: 3548 8dbd 44d3 ebbc edd3 413d f24d 763d
000000b0: abf9 723d ab55 55bc b2cc 75bd 3299 c5bb
000000c0: cdf8 133c 6049 393d a5f5 aabc c128 0ebd
000000d0: 0cb7 3a3d 8aaa 883d 189a d2bc be63 00bc
000000e0: fe54 2abd c466 25bd e389 65bb 53a9 a8bc
000000f0: 7278 8b3d 13da d73c 8c1e 593d 1477 81bd
0.06771741 -0.04430282 -0.056796983 0.0038732023 0.03845199 0.0032393904 0.024958331 -0.070995174
-0.06832367 -0.01700923 -0.016371258 0.031348404 0.055946667 -0.058704093 -0.03233813 -0.04847677
-0.022394706 0.05887399 0.047862347 -0.004173849 0.0061309338 -0.0041670194 -0.03601618 -0.05178898
0.0017100137 -0.014838703 -0.023839807 0.005939113 -0.013292897 -0.0325419 -0.005434609 -0.05037698
0.03830818 0.018115552 -0.011354183 0.037628986 0.055212267 -0.04074386 0.068183675 -0.03184029
-0.06898538 -0.028787263 0.04732125 0.06013293 0.059320133 -0.013020913 -0.060009666 -0.006030225
0.009031487 0.04523599 -0.020869086 -0.034706835 0.045584723 0.06673153 -0.025708243 -0.00783628
-0.04158496 -0.040381208 -0.0035024814 -0.020588553 0.068100825 0.026349103 0.053007647 -0.063215405

layer1.residual_skip.weight f4 [64, 16, 1]
00000000: 064f ee3d e4ae 6ebe 2711 2ebe b3f2 2cbd
00000010: eae7 75bd 57ff 3bbe 8da6 913b 2471 073e
00000020: b543 68be 1acc c8bd ce19 2bbe befa 2f3e
00000030: 08a7 383e 5a32 3cbe 6d72 f5bd 2d49 61bd
00000040: f76e 563e 350e 21be 7893 92bd 6b50 16be
00000050: 4dec d7bd 8863 59be bc49 793e ec00 de3d
00000060: 6f1d 463e 4d08 1d3d 2561 073c 8d9e f9bb
00000070: 6593 7cbe 1a0a 143d 1e34 23be 98ab 0fbe
00000080: 96f0 a53c b079 333e ab07 2cbe 86a5 c23d
00000090: 2a50 2b3c ac73 1e3e 1ecd 713e dd37 2bbc
000000a0: 78a0 a2bd c0c4 7ebe 8063 cdbd 28b8 6f3d
000000b0: 8740 743d 1a74 62be 3e76 723c 9a44 033e
000000c0: 2cbf 253e b9b6 73bd de4b e13d 1cae 7abd
000000d0: ff86 c43d dba2 85bd d17e c13d 15c7 823c
000000e0: 7fc7 5d3e 0ceb 31be fb9d 053e 22aa 5b3e
000000f0: df6d 163d 09da 313e 520c 4ebe 8e9a 443d
00000100: b626 453e c767 1e3e e374 6a3e 97c3 39be
00000110: 8270 383e d038 e5bc d95e 803e d486 79be
00000120: d942 623e bb3c c5bd 18b7 e43d 93bb f3bc
00000130: dd2c 40bd acc6 f33c 0837 0bbe 6d37 683e
00000140: 8e09 623d 144f b13d 8903 7dbd 09ab 52bd
00000150: 11ce 06be dc6c 86bd f281 debd 7816 56be
00000160: 46e1 583e 9e3a 7f3e 37f8 0f3e 5dbe f1bd
00000170: 9a8a 30be 698c f7bc 2f56 623d ca00 0abd
00000180: ecae 4b3e 45f8 3bbe 3eda 12be 6bca 533e
00000190: d588 4e3e 7f44 e9bd 3cbc e03d 8331 963d
000001a0: 0fbe e63d 0f38 993d af97 4d3e d3ba 513e
000001b0: 5212 993d 31de bdbc 179e f93d 5cba bcbc
000001c0: 1788 803c 81e1 68be e556 74bd a319 e03c
000001d0: 545f ea3c 95a8 cebb b312 3fbd 8f27 86bd
000001e0: 793b b83d 74d1 04be 9c7c 84bb 7236 253e
000001f0: 8c0d 1bbe a906 12bc a6c1 053e 7954 543e
00000200: a3c0 ed3b ef75 763e 2fa2 35be 9220 6abd
00000210: 4053 13be 3857 803e fba5 bc3c a51f de3d
00000220: 331c 27bd 945c 053e 318f 423d 47f3 2e3e
00000230: ea8f 9a3d 6e0f 4f3e 6518 c23d d651 413e
00000240: 75a0 af3d 9c1f 5c3e 399b af3d dcf4 0d3d
00000250: ed2c a33d c8d0 093e 3750 87bc 1006 5ebd
00000260: 4d94 853d 2b4d 36bd 8b44 6abd 93e9 90bc
00000270: 2e51 4a3e ce73 073e 61f6 7f3e 12eb c3bd
00000280: 2fa3 cbbd 589b 38be d199 ccbd deb4 be3c
00000290: e5ca cb3c ef61 743e a3e9 2e3d ca3d 9fbd
000002a0: 3464 cabc 664b 31bb bcd6 7fbe db42 b93d
000002b0: 1009 153e 64d4 193e 5ba3 64be 1fb2 04be
000002c0: 06ed 4b3e 8a26 ba3c 162c 203e d375 1f3e
000002d0: 8d28 073e 97be 453e 6383 6c3e db0b 0c3e
000002e0: 16c0 973c abbe 143e a2d2 293e e95c 6b3e
000002f0: 7629 08be 9524 b6bd a16a 0cbe e9ff 2cbe
00000300: a5f6 a4bc 0053 6c3e e843 52bd 7e67 bfbd
00000310: e368 b93c 812a 52be 7874 483e f1d4 e1bd
00000320: 34e8 7c3e 0938 abbd ad07 24be 5d16 5bbe
00000330: f28b 223d 5e78 993d fc1f 96bd b4ea 8ebd
00000340: 0826 4b3c 95e1 2a3e c485 b9bd ef8e 4f3e
00000350: 675f ad3d 4f76 51bc 2fe3 7abe 2a7f 0dbe
00000360: a168 7c3e 844a dcbd dee4 8abd 95e8 1e3d
00000370: 9622 75bd f810 623e 1ba4 f33d cbe5 6dbe
00000380: b8df febd 2dee 9d3d 412a 353e 4987 4dbe
00000390: 4ed7 a3bd ad94 f5bd 14ad e23d dfbf 693e
000003a0: 714c 8c3d 0acd 61be 11b9 16be 7c3f 853d
000003b0: 7ed5 cfbc b50d 9cbd 3d0a 4abe 83a4 b2bd
000003c0: eea5 0fbe 4f9d 043d acb5 17be 0910 183e
000003d0: 66d1 4f3e 6f3e d23d 11ac 3abc 6e73 393e
000003e0: 3047 70be 7596 473e 3ac9 563e 56a7 6abe
000003f0: ff4d 733e d9d9 42be 0c8b 0fbe 44ae 39bd
0.11636166 -0.23308903 -0.1699873 -0.042223644 -0.060035624 -0.18359123 0.004444903 0.13226753
-0.22682078 -0.09804554 -0.16709062 0.17185494 0.18032467 -0.18378583 -0.119847156 -0.055001426
0.20940767 -0.15728076 -0.07157034 -0.14679115 -0.10543118 -0.21229374 0.24344534 0.108400196
0.19347166 0.038337994 0.008262907 -0.0076177777 -0.24665602 0.036142446 -0.1593785 -0.14030302
0.020256322 0.17526889 -0.167998 0.09504227 0.010456124 0.15473813 0.23613402 -0.010450331
-0.07940763 -0.24879742 -0.10028744 0.058525234 0.05963185 -0.22114602 0.014798699 0.12819138
0.16186208 -0.05950043 0.11000799 -0.0612012 0.09596061 -0.06525203 0.094480164 0.01596407
0.21658133 -0.1737482 0.13048546 0.2145162 0.036725875 0.1736833 -0.20121887 0.047998957
0.19253048 0.15469275 0.22896151 -0.18141018 0.18011668 -0.027981192 0.25072363 -0.24367839
0.22095813 -0.09630724 0.11167735 -0.029752528 -0.046917785 0.02975782 -0.13595212 0.22677393
0.055184893 0.08657661 -0.06177095 -0.051432643 -0.13164546 -0.06563732 -0.10864629 -0.20907009
0.21179685 0.24924704 0.1405953 -0.11803887 -0.17240372 -0.03021832 0.055257972 -0.03369216
0.19890946 -0.18356426 -0.14341065 0.20682685 0.20169385 -0.11390018 0.10973403 0.07333662
0.112667195 0.074813955 0.20077394 0.20481424 0.074741974 -0.023177238 0.12188356 -0.023038082
0.015689893 -0.22742273 -0.05965318 0.027355975 0.02860991 -0.0063067176 -0.046648692 -0.06550514
0.089957185 -0.12970525 -0.004043175 0.1613405 -0.15141886 -0.008912721 0.13062152 0.20735349
0.00725563 0.24068426 -0.1773765 -0.057159968 -0.14387226 0.25066543 0.023028364 0.108458795
-0.040798377 0.13023597 0.04749984 0.1708499 0.07546981 0.2022073 0.09477309 0.18878874
0.085755266 0.21496433 0.08574528 0.034657344 0.07967553 0.1345855 -0.016517742 -0.054205
0.06522427 -0.044507187 -0.057194274 -0.017689502 0.1975753 0.1322777 0.2499633 -0.095663205
-0.09943234 -0.18028009 -0.09990276 0.023279604 0.024877021 0.23865484 0.042703282 -0.07775457
-0.024705984 -0.0027052998 -0.24984258 0.09045955 0.14554238 0.15022427 -0.2232794 -0.12958573
0.19914636 0.022723455 0.15641817 0.1557229 0.13199063 0.19310986 0.23096995 0.13676398
0.01852421 0.14525859 0.16584256 0.22984661 -0.13297066 -0.08893696 -0.1371255 -0.16894497
-0.02013714 0.23078537 -0.05133429 -0.093459114 0.022633022 -0.20524026 0.1957568 -0.110269435
0.24697953 -0.08360297 -0.16018553 -0.2139525 0.039684244 0.07493661 -0.07330319 -0.0697836
0.012399204 0.16687615 -0.09058717 0.20269369 0.08465462 -0.012784555 -0.24500726 -0.1381804
0.24649288 -0.107564 -0.06781934 0.038796026 -0.059847437 0.22076786 0.11896535 -0.2323219
-0.12445015 0.07711444 0.176919 -0.20071138 -0.080000505 -0.11991248 0.11068168 0.228271
0.068505175 -0.22050872 -0.14719035 0.06506249 -0.025370356 -0.07619802 -0.19730468 -0.08722784
-0.14028141 0.032376584 -0.14815396 0.14849867 0.20294723 0.102658145 -0.011393563 0.18110439
-0.23464656 0.19490989 0.209752 -0.22915396 0.23760222 -0.19028415 -0.14017886 -0.04533221

layer1.residual_skip.bias f4 [64]
00000000: 010a 1abd 5b4c 9c3d c976 093d e4d9 f3bb
00000010: 1881 1abc 9bf0 48be 685f 693d 1ed0 323e
00000020: f74d 5dbe 85c2 b33c 109e 263c 4c5e 153e
00000030: dad8 193c bcec e8bd ca2e 883d 22ef d83c
00000040: b2ba 5abe 454b c4bb 3c64 b5bc a9ea 613e
00000050: 2a94 1d3e 819a 1ebd 3f63 abbd 2677 7ebe
00000060: 2e9b 223e b38b 023e d2c8 babc e7ea 473e
00000070: 1505 d8bd afaa 203e 81aa 243e b89d fe3c
00000080: e280 933c 7a41 a1bd b19f 1dbe 0f7b 6cbe
00000090: 802f c7bc 3611 623e 2e66 09be 4802 3cbe
000000a0: 21a0 4cbd 843e bebd 9e15 fc3d 9a85 9cbd
000000b0: 7d72 c9bb 02f2 39bd 146c babd 0f80 24be
000000c0: 4276 9f3d c948 2abe e03e 27be 601c 2b3e
000000d0: 79dd 2a3e 7ee7 013e f2d0 793e 95c5 373d
000000e0: ba11 7d3e fc3e 3cbd b1aa 75bc 6f04 5bbe
000000f0: c829 c13d 845e 553e 5cb6 363e 4eaa 53be
-0.037607197 0.07631751 0.033560548 -0.007441746 -0.009430192 -0.19623034 0.056975752 0.17462203
-0.21611772 0.02194334 0.010169521 0.14586753 0.00939008 -0.113732785 0.06649549 0.026481215
-0.21360281 -0.005990418 -0.022142522 0.22062172 0.15388551 -0.038721565 -0.08368539 -0.24850139
0.15879509 0.12748604 -0.022800837 0.19523202 -0.10547844 0.1569011 0.16080667 0.031081066
0.018005792 -0.07873817 -0.15392949 -0.23093818 -0.024314642 0.22076878 -0.13417885 -0.18360245
-0.0499574 -0.09289268 0.12308811 -0.0764267 -0.0061476813 -0.045396812 -0.091026455 -0.16064475
0.07786228 -0.16629328 -0.16332579 0.16710043 0.16686048 0.12685964 0.24396113 0.044866163
0.24713793 -0.045958504 -0.014994309 -0.2138841 0.09431797 0.20836836 0.17843002 -0.20670435

layer2.conv1.weight f4 [64, 64, 3]
00000000: 8bd5 9d3b 8114 253d 0d55 043c 2348 f13c
00000010: 64d4 debc 5136 423d fe84 fc3c ffb1 1c3d
00000020: 43ff efbc 7cfe 153d 9e43 4c3d 273a 503d
00000030: a92b f1bc 5518 7cbd a1b4 bcbc 5d5f f93b
00000040: 115a f63c 87e5 b3bc d758 713d 77a3 2dbb
00000050: c8b3 5ebd a4ef 78bd 7f45 43bd 8c42 c5ba
00000060: bb19 a43d b4c5 153d bab7 77bd 2474 3f3d
00000070: c661 5cbd 2bd2 65bd eae7 c3bc bb08 f7bc
00000080: 91a2 863d 4325 04bd 7cc5 bdbc f22a 8fbd
00000090: e575 683d f4de 133c fe5e 893d f4fd d23c
000000a0: c384 80bd ed7d 3fbb 41ad 313d ff6f 2abd
000000b0: def0 44bd 8aeb fbbb e3c8 3abd ff83 67bd
000000c0: a594 cdbc 04e3 60bc 0302 a3bc 5a68 613d
000000d0: 120a 64bd 311e 233d d29b ff3b b796 2c3d
000000e0: 5161 163d 5d27 51bd a687 1ebd 49a5 793d
000000f0: fc00 dabc d766 64bd 6e30 58bd 8b88 943d
00000100: fd7d 803d 0c61 85bc ef7a a1bd 4c62 57bd
00000110: f3fe 2e3d fd79 b3bb 6279 5d3c 6b20 0bbd
00000120: afda 44bd a16a 323d abb9 143d c0c3 113c
00000130: 71ee 2e3c f6fd 5cbd db9a 2e3d 5129 883c
00000140: 54b2 18bd 2f4b 163d cb0d 813c e764 c43b
00000150: de73 9e3c c034 a33c ccce 933c 0bbb c23c
00000160: d17e 45bc 0f87 3b3d f4c2 c3bc 4684 dd3c
00000170: 3583 26bd 4080 7dbd a1ad 60bd 7112 c13c
00000180: 82ff 1c3d 612c c53a a0b5 583d 01cc 61bb
00000190: 8ed1 15bc ccfb 87bd 1957 6bbc d0bf 153b
000001a0: 060f c43c 56ca e33c 6487 7fbd 0a3a 5f3d
000001b0: c0ba 393d fbc4 3c3d c1c4 99bc bb85 e4bc
000001c0: 4b9a 57bd 2b9c 97bd a41c 8bbd 640e 643d
000001d0: 942a 493d 3d9d 533d 961e 87bc 24bb fc3b
000001e0: b0ce 74bd 3b5a 833d 6293 573d 62c4 82bc
000001f0: 8c56 26bd 7342 24bd b51f 6ebb 98a2 693c
00000200: 4695 3dbd db38 89bd b909 1d3d ff06 e2bb
00000210: 1c53 a23c 1f47 8cbb 4bf5 963c 7669 973d
00000220: 81dd 5b3d fb1f 17bc c46b 10bd 02e0 9fbc
00000230: 4a69 b73c 7d14 7abc 303c 5e3c 4612 9cbc
00000240: be4d 923c 362a 24bd 2107 e9bb f24e 5bbd
00000250: 02ce 283d 400b cfbb 4311 473c ac39 4d3d
00000260: 3809 bf3c ec81 42bc b96f 963d aa60 3a3d
00000270: b417 fdbc 04ac 2abc bc47 6e3c 86dd e2bc
00000280: b7b8 5e3d e320 4dbd 599a 27bd bd55 d23c
00000290: 63fb e2bc 24c3 bdbc 6b2d 24bd 27f7 4dbd
000002a0: 124e f3bc 8c8f dc3b 2861 f93b 92a5 07bc
000002b0: 2ef0 96bc 3a94 92bc 0c26 973d da89 793d
000002c0: f52d d03c 5c13 33bd d6eb 463b e9ef 9dbd
000002d0: 70e9 b2bb 2b26 113d 1220 89bc eade c03c
000002e0: 7539 e73c 1b8f 83bd 98d6 80bb 15b2 943d
000002f0: eea5 89bd aa0e 093c a400 e2bc 1854 97bc
00000300: 9722 963d 242c 353d 3ff0 d0bc 2898 a53c
00000310: 98da 0bbc 32b4 7d3c fc09 233d e345 513b
00000320: 1221 133d b46e 03bd 2293 7e3a 69ea b73c
00000330: 1dc3 0e3d e8f2 28bd 2b45 91bc c4d2 3b3d
00000340: 6855 86bd 22c1 3bbd ccc1 30bd d58c 9ebd
00000350: 336b 53bd 083e 1b3c 9045 2c3c 4b99 41bc
00000360: 2a4c 5f3d 1315 273d 2e1b 3dbd d11b b23b
00000370: bf00 cf3b 3c77 c13b 46c1 363c 2741 c5bc
00000380: 57da 3fbd 1d28 11bd c350 44bd 2739 a5bc
00000390: f564 6f3d f093 9ebc e137 dabc f244 54bd
000003a0: d3d9 cb3c a61f 33bd 8d11 df3c 6a93 9d3d
000003b0: 7089 653b 1275 b83c 908d 093d 8382 84bd
000003c0: 0dac 4e3d c3d0 b6bc 5a1e 53bd 7c2c 01bd
000003d0: 6656 90bd b504 c13c f99e 8ebd 5264 df3c
000003e0: 9d8c 27bd 677b 443d 1cc4 d63c 484c 703d
000003f0: 4f62 6a3b c307 b43c 683c d33c b6da 5e3c
0.004816716 0.040302757 0.008076918 0.029453343 -0.027200885 0.04741508 0.030825134 0.038255688
-0.029296523 0.03661965 0.049869172 0.05083671 -0.029439764 -0.061546642 -0.02303535 0.007610245
0.030072244 -0.021960033 0.058922615 -0.0026495138 -0.05437067 -0.060775414 -0.0476737 -0.001504974
0.0801272 0.036565498 -0.06047795 0.04674162 -0.05380418 -0.056108635 -0.023914296 -0.03015553
0.06573976 -0.032262098 -0.023165457 -0.06990613 0.056753058 0.009025324 0.067075714 0.02575586
-0.06275322 -0.0029219345 0.04337812 -0.041610714 -0.04808127 -0.0076879906 -0.045601737 -0.056522366
-0.025095293 -0.013726 -0.01989842 0.055031158 -0.055673666 0.039823715 0.0078005577 0.04213592
0.036713902 -0.05106293 -0.038703583 0.060948644 -0.026611798 -0.05576214 -0.05278056 0.07252606
0.0627403 -0.016281627 -0.07884776 -0.052583978 0.042723607 -0.0054771886 0.013517709 -0.033966463
-0.048060115 0.04355872 0.03630988 0.008896768 0.010676966 -0.053953134 0.04262815 0.016621264
-0.037279442 0.036692794 0.015753647 0.005993474 0.01934236 0.019922614 0.018042944 0.02377083
-0.012054161 0.0457831 -0.023896672 0.027040612 -0.040652473 -0.061889887 -0.054853085 0.023568364
0.03832961 0.0015043133 0.052907586 -0.0034453871 -0.0091442 -0.06639823 -0.014364027 0.0022849925
0.023932945 0.027806442 -0.062384978 0.05449871 0.045344114 0.046086293 -0.018770577 -0.027895799
-0.05263738 -0.074028336 -0.06792572 0.055677786 0.04911287 0.051663626 -0.016494077 0.0077127386
-0.059767425 0.064136945 0.05263079 -0.015962783 -0.04060988 -0.040102433 -0.0036334817 0.014259957
-0.046284936 -0.067002974 0.03833935 -0.0068978067 0.01981502 -0.004280939 0.018427512 0.07393162
0.05367804 -0.009223933 -0.035259023 -0.019515995 0.022389073 -0.015263674 0.0135641545 -0.019051682
0.017859336 -0.040079318 -0.0071114455 -0.053542085 0.04121209 -0.00631848 0.012150112 0.05010383
0.023319826 -0.011871796 0.07345528 0.045502342 -0.030895092 -0.010416988 0.01454347 -0.027693521
0.054375377 -0.05008019 -0.04091868 0.025675649 -0.027707761 -0.02316434 -0.040082376 -0.05028453
-0.029700313 0.0067309793 0.007610459 -0.008279221 -0.018425073 -0.017892946 0.07380304 0.06092248
0.025412539 -0.043719634 0.0030352972 -0.07711775 -0.005459957 0.03543679 -0.016738925 0.023543794
0.02822564 -0.064237796 -0.0039318316 0.07260529 -0.06721102 0.008365313 -0.027588196 -0.018472716
0.07330816 0.04423155 -0.025505183 0.020214155 -0.0085360035 0.015484856 0.039804444 0.0031932525
0.03592021 -0.032087997 0.00097112556 0.022450643 0.034854043 -0.04124728 -0.017733177 0.0458553
-0.06559259 -0.045838483 -0.04315357 -0.07741705 -0.051615905 0.009475239 0.010514632 -0.011816333
0.054515995 0.040791582 -0.0461685 0.005435445 0.0063172276 0.0059041064 0.011154478 -0.024078919
-0.046839084 -0.035438646 -0.047928583 -0.020168854 0.05844589 -0.019357651 -0.026637973 -0.051823564
0.02488414 -0.043731354 0.027230049 0.076941326 0.0035024546 0.022516761 0.03358227 -0.06470206
0.05045705 -0.022316342 -0.051542617 -0.031536564 -0.07047729 0.023561815 -0.069639154 0.027269516
-0.040905584 0.04796925 0.02621656 0.058666497 0.0035764163 0.021976357 0.02578564 0.013601949

layer2.conv1.bias f4 [64]
00000000: a886 c8bc d7bf 593b b889 82bd 383f 2bbd
00000010: 3c73 783b 6ea0 853d e27a b3bc ab5d d23c
00000020: 7972 8dbd 7c51 82bd b574 8d3d 7668 09bc
00000030: f998 90bd 506e d2bc 596f ef3c 4628 0e3d
00000040: eb85 51bd 8ca3 6b3d 6321 333d be03 8dbd
00000050: ab0b 2b3d a909 223d c996 b03c f835 213b
00000060: 8488 84bd eafd 633d f850 a7bc 2b5d fabb
00000070: 1b01 103d b83d 4a3c 053e 413d 50a6 1f3d
00000080: 73ec 92bc 8db8 43bd 0e02 383c 4868 473d
00000090: 7e77 81bd 7ba5 b7bc 3128 843d a513 8e3d
000000a0: 0cb7 e63b 338a 20bc 9f81 a2bb 92c8 dfbc
000000b0: 0d09 65bd fd62 35bd 2153 cdbc a60b 0e3d
000000c0: d315 353d 3bca 903c 723a e53c b4fa 813d
000000d0: 584c 58bd 2a6b 66bb 70fa a33c e173 af3c
000000e0: 63d4 79bd 1bfc c03c 6767 923d 6cfa 78bd
000000f0: afae 0839 08ca 7cbd e0cf 42bd 7361 34bd
-0.024478272 0.0033225918 -0.06373924 -0.041808337 0.0037910482 0.0652474 -0.021909181 0.02567943
-0.069065996 -0.06363198 0.06907026 -0.008386722 -0.07060427 -0.025687367 0.0292279 0.034706376
-0.051153105 0.057529017 0.043733012 -0.068854794 0.041759174 0.039559994 0.021556275 0.0024598818
-0.06471351 0.055662073 -0.020424351 -0.007640501 0.035157304 0.012343816 0.047178287 0.038976967
-0.017935013 -0.047783423 0.011230959 0.048683435 -0.063216195 -0.022417774 0.064529784 0.06937341
0.007040864 -0.009798574 -0.0049592997 -0.027317319 -0.055916835 -0.044283856 -0.025064053 0.034679078
0.044210266 0.017674556 0.02798197 0.06346646 -0.052807182 -0.003515909 0.020016879 0.02141756
-0.060993563 0.023557713 0.07148629 -0.060785696 0.00013035045 -0.06171611 -0.047561526 -0.044038247

layer2.conv2.weight f4 [64, 64, 3]
00000000: 648b 87bd 3839 1cbd dc09 3ebd b507 593c
00000010: 6e6d fb3a 6dc5 633d 843a 1b3c 54b2 16bd
00000020: e171 9e3b ee65 43bd c7e1 473c 86d9 88bd
00000030: 2f29 4fbd 3cf6 433d c8a3 56bd d6ef 7cbd
00000040: 8f43 9e3d d56f b0bb 0ae8 5a3d 3148 7abd
00000050: e76a a0bc 35ff 92bc 8c05 1c3a b2d1 ddbc
00000060: b81d 97bc 0eb6 8b3c da65 c23c 4db8 dfbc
00000070: 1191 503d 0aa6 133c 9ffb 4b3c b6c4 803d
00000080: 24b2 15bd caeb 9839 434b c63a 3de4 4a3c
00000090: 93ed 333d f280 463d 57bf 313d d7ee 4abd
000000a0: 23a1 f53c 675a 103d 9cc8 463c 8fab 1e3d
000000b0: e8ef 3b3c 3942 923d 1dab fc3c 4525 16bd
000000c0: e8e8 5f3d 8e9c 58bd c74d 04bd aac5 3dbc
000000d0: c8f2 6f3d 5e15 433d 203a 29bd bb44 8abd
000000e0: cfd3 44bc 847d dbbc e386 d13c 787f 2a3d
000000f0: 33d9 7a3d 668c 5dba c632 36bd bcc3 8abd
00000100: 432b 533c 47bf fcbc fcbf bbbb 1075 e6bc
00000110: 25ac 40bd 782e 3c3d a09d 8e3d 555d 4bbd
00000120: f655 a53b 4112 913d 848b cb3c c8e3 983d
00000130: 80cf bdbc 85a0 943c fd0a e53c b454 2ebd
00000140: 0380 00bd 8663 4abd fb50 0d3c bcb2 90bc
00000150: 5690 fd3c 818e 7cbd 7a27 363d 49c3 873d
00000160: 27ac 773d 8f5f f03c a72d f03c b6ce 74bd
00000170: ee76 55bd f547 73bd 4342 f53c 6b69 7dbb
00000180: 9406 5f3d cff9 ffbc e6c8 64bd 8331 693c
00000190: 633c f33c 2f6f 7a3c 5999 d73c 19ac 3abd
000001a0: ab5e b63c 5601 443d 3700 abbc 055f 7e3c
000001b0: 27b4 ee3b 29b6 e93c 775c 1c3d c312 4bbd
000001c0: 7ece 9b3c 8867 8cbb 56f6 553d 7c27 12bc
000001d0: b49a 7b3c 837e 70bd 8fb2 153d e4a0 13bc
000001e0: d23d 2c3c f1e4 28bd 35e3 0a3d cc1d a83c
000001f0: 0bd7 dfbc b2e8 76bd 1105 423d 8694 8f3d
00000200: 4992 27bd fdd0 fdbc 98d7 793c eb33 92bd
00000210: 236a 4e3d 6987 16bd 5a95 1dbd ed43 b0bc
00000220: a18b 243b cd85 90bd 445e f13b 35d8 113d
00000230: 2d9b 89bc 7e83 85bb 8924 79bd 10a4 b1bc
00000240: 4546 32ba 1b6a 4abd 30cf 5f3d 9ebb 803d
00000250: a421 313d da35 6ebb 7fa6 423d 150a 893d
00000260: d5fb 7ebc 9848 a3bd db70 533d bc9f 2f3d
00000270: c0b3 f93c ec31 3e3d 5bc0 4e3d 3b0b 8b3d
00000280: 654f 87bd 2e7c 2dbd 5394 6f3d 0ade 1ebd
00000290: b782 9a3c ab00 5bbd b6bc 09bd 3a83 92bd
000002a0: 116d cd3c 1006 86bc 732d 83bc 0919 97bc
000002b0: ad71 12bd 9931 85bd 5692 753d 7d59 42bc
000002c0: c0da 093d e354 fd3b ca0b 8fbc 2769 d5bc
000002d0: 1383 78bd 97b3 82bd 0da9 cbbc e653 0dbd
000002e0: c182 483d 7075 2b3d 4014 833c a8d4 813d
000002f0: b156 883c fd1b d6bc 60dd 7e3d 56e1 c6bc
00000300: f189 6a3d 794c cebc 02ec 19bd f5ff 163c
00000310: 1c28 d53c ef14 91bd ac76 8cbc b2cc 183d
00000320: 076a 28bd 7b3e 06bd 49f6 473d e9b3 9e3d
00000330: 0322 6cbc 9a2c b83c 7334 1f3c 2b99 7e3d
00000340: 1d9a 113d aab6 bfbc acb6 8cbc 6a17 08bc
00000350: 5ebb 5ebd 0537 8a3d 2af5 6cbc 1a8d 1c3d
00000360: 6bfb dabc 3619 22bc fe8b 663d cd53 82bc
00000370: 99ca 9b3d 83e7 27bc 3526 873b 4312 ec3c
00000380: 2579 9abd 566e d13c 1ff5 66bd 48d3 f43c
00000390: 482e 4bbd d2c2 77bd a220 66bd df1e 2d3d
000003a0: 48a1 86bc 6c75 7bbd 067b 12bd 0bf6 a03d
000003b0: d0f7 073d 3c2c 843d 00a3 98bc 9416 e73c
000003c0: fcc0 323d 3051 82bc f046 8e3d 87cc 473d
000003d0: 4a8c 4ebd 1751 273d b68f ec3b 47b9 473d
000003e0: 66cf 743d 773e 5e3d 42b8 b0bc 5d42 2d3d
000003f0: cdbc 003d 13cb 193c a09c e9bc 5065 873d
-0.066183835 -0.038140506 -0.04639612 0.013246466 0.0019182393 0.0556082 0.0094744 -0.03679116
0.004835353 -0.04770463 0.012199826 -0.06682114 -0.050576385 0.04784225 -0.052402288 -0.061752163
0.077277295 -0.005384425 0.053443946 -0.061104003 -0.019582225 -0.017943958 0.0005951754 -0.02707753
-0.018446788 0.017054584 0.023730207 -0.027309561 0.050919596 0.009011755 0.012450128 0.0628752
-0.03654684 0.00029167376 0.0015128631 0.012383518 0.04392774 0.048462816 0.043395367 -0.04954418
0.029984063 0.035242464 0.01213279 0.03873783 0.011470772 0.07141537 0.030843312 -0.036656637
0.054665476 -0.052883677 -0.032300737 -0.011582771 0.058581144 0.0476278 -0.041315198 -0.067513905
-0.01201339 -0.026793249 0.025577014 0.04162547 0.061242294 -0.0008451402 -0.044482015 -0.067756146
0.012888732 -0.030852927 -0.0057296734 -0.028131992 -0.04703917 0.045942754 0.06963658 -0.049649555
0.0050456477 0.0708356 0.0248468 0.07465321 -0.023170233 0.018142948 0.027959341 -0.042561248
-0.03137208 -0.04941132 0.008625264 -0.017663352 0.030952614 -0.06165934 0.04447124 0.066290446
0.06046691 0.02934244 0.029318644 -0.059767447 -0.052115373 -0.059394795 0.029938823 -0.003866757
0.054449633 -0.031247048 -0.055855654 0.014232996 0.02969188 0.015285297 0.026318239 -0.04557428
0.022261938 0.047852837 -0.020874126 0.015525584 0.0072846594 0.028529244 0.03817412 -0.04957844
0.019019362 -0.004284803 0.052236877 -0.008920547 0.015356708 -0.0587144 0.03654724 -0.009010527
0.010512786 -0.04123396 0.033908088 0.02052202 -0.02732422 -0.06028051 0.047368113 0.070107505
-0.040910993 -0.030983442 0.015249155 -0.07138809 0.05039419 -0.03675023 -0.03847251 -0.021516765
0.002510764 -0.070567705 0.0073659737 0.03560658 -0.016797626 -0.004074513 -0.06082586 -0.021684676
-0.0006800632 -0.049417596 0.05464095 0.06285785 0.043244973 -0.0036348016 0.047522064 0.06691376
-0.015562971 -0.079728305 0.0516213 0.042876944 0.03048122 0.046434328 0.050476413 0.067892514
-0.0660694 -0.042354755 0.058491062 -0.03878597 0.018861158 -0.053467434 -0.033627234 -0.07153936
0.025076421 -0.016360313 -0.016012883 -0.018444555 -0.03575294 -0.065036006 0.05995401 -0.011862156
0.033655882 0.0077310666 -0.017461676 -0.026051117 -0.060671877 -0.0638191 -0.024860883 -0.03450384
0.04895282 0.041860044 0.016000867 0.06339389 0.0166429 -0.026136393 0.06222284 -0.02427737
0.057260457 -0.02518295 -0.03757859 0.009216298 0.026020102 -0.07084071 -0.01714643 0.037304588
-0.04111674 -0.03277443 0.04881886 0.07749159 -0.014412406 0.022482205 0.009717095 0.06215779
0.035547365 -0.02340253 -0.017176948 -0.008306364 -0.054377906 0.067487754 -0.014462749 0.038220502
-0.026731214 -0.009893706 0.05628585 -0.0159091 0.07607002 -0.010248068 0.0041244277 0.028817302
-0.07542638 0.025565308 -0.05638611 0.029885903 -0.049604684 -0.06048853 -0.056183465 0.04226577
-0.016434327 -0.06139128 -0.035761856 0.07859429 0.033195317 0.064537495 -0.018632412 0.028209008
0.043641075 -0.015907854 0.06947124 0.048779037 -0.05042676 0.040848818 0.00721928 0.04876068
0.059768103 0.05425879 -0.021572236 0.042299617 0.031430054 0.009386796 -0.028517067 0.06611121

layer2.conv2.bias f4 [64]
00000000: 56cd fb3c 3a4d 66bc 479e 62bd e041 85bd
00000010: 0b01 b23c be9a 55bd bf2f 2b3d bc37 d13c
00000020: 4a84 0fbd 1233 a03c 3da3 923c 8735 8dbb
00000030: 4421 153d 0593 14bd 3f03 8b3d f983 0e3d
00000040: 44c7 4bbd 5aad 833d 3db9 bf3c 475d f5bc
00000050: e88a 64bd 3633 7839 dddb 1ebd 17e3 733d
00000060: d3f0 f13b bd3e 533d d7dc 8fbd bd1f 903d
00000070: 08e5 11bd d109 4f3d e446 7d3d 9fa0 813d
00000080: 4d71 87bd a16e b83c 1e7b 843d e9e5 913d
00000090: 0989 3ebd 607a 913d 5b86 b3bc 6505 7ebd
000000a0: ef22 fabb 3211 95bd 0efa 743c 9d6e 933d
000000b0: 6d5b 31bc 2f32 76bd a032 82bd ec23 5e3d
000000c0: 5eca 133d f599 77bd b16d 3e3d 09da 203d
000000d0: 14ac 9c3c 596c 4b3d 7512 6bbd 7313 8cbd
000000e0: dedd 2a3d c22b ab3c b10a a6bc b8ad 08bc
000000f0: f947 a7bc ec63 f0bc 479a 4dbd 393b 4cbd
0.03073756 -0.014056498 -0.055326726 -0.06506705 0.021729013 -0.052149527 0.04179358 0.025539272
-0.03503827 0.019555602 0.017900104 -0.0043093595 0.036408678 -0.03627302 0.067877285 0.034793828
-0.04975058 0.064295486 0.023403758 -0.029951705 -0.055796534 0.000236702 -0.038783897 0.05954274
0.007383445 0.051573504 -0.07024544 0.070373036 -0.03561881 0.05054647 0.061835185 0.06329464
-0.06613407 0.02251369 0.06468795 0.0712393 -0.046517406 0.07103419 -0.021914652 -0.062016863
-0.007633559 -0.0727867 0.014952196 0.07198832 -0.01082502 -0.060106453 -0.06357312 0.054233477
0.036081664 -0.06044956 0.04649133 0.039270435 0.019125022 0.049663875 -0.05739065 -0.06839647
0.041715495 0.020894889 -0.02026877 -0.008342199 -0.020420061 -0.029344521 -0.05019596 -0.049861167

layer3.conv1.weight f4 [64, 64, 3]
00000000: 4e01 273d 4e98 a9bc b4f9 ecbc beec 663b
00000010: 22bd b93c 8606 06bd eb11 45bb 7b39 4fbb
00000020: 0384 49bd 63b1 4abc 286f 56bc 55a0 7b3c
00000030: 191a b83b b70e 4d3d c2d4 01bd 41a2 cc3c
00000040: 31dc 8fbd 4bfb 6f3c 5889 74bd a899 85bd
00000050: 47d6 4a3d c8c2 b0bc ab59 11bd 2564 50bb
00000060: 9d42 57ba f358 173d 8168 923d a8c1 0f3d
00000070: 1747 6d3d ba6b 86bd 0cce e8bb e8e6 2abd
00000080: 30a7 90bd 8b48 0aba 5279 5abd dc9e 0dbd
00000090: c440 2e3d 041f 1fbd beb6 3d3c ef0c c53c
000000a0: c640 92bd c69f 0abc f11a 06bd 6dd5 023d
000000b0: 11db febc 7568 9b3d 0259 203d 7b2d 813c
000000c0: 6cfc 12bd 81cf 043d ea05 ef3c 9d48 c5bc
000000d0: 1b80 4fbd e4a2 2bbd 2d92 283d 25bf b23c
000000e0: 9e84 c2b8 bfa9 96bc 338d 6bbd 2d73 1e3d
000000f0: e922 cc3c 5545 5dbd 20c2 9fbc dfe6 24bc
00000100: 33a2 213d db6f 30bd aad2 1abd 11b8 9bbd
00000110: 25ff 60bb 9be0 933d 5349 58bd 848a e3bc
00000120: d7be 3abb 389d 8a3d 752a 0cbd a6dd 073d
00000130: 66d6 43bb f080 86bd 113a a6bc 3692 0ebd
00000140: 98d1 29bd e7d8 383d 7c67 8bbd a756 d33c
00000150: f123 4fbd 91de 563d abd4 9e3c d4cb 50bd
00000160: f3d3 7e3d 13d3 a8bc 4b77 f13c a83f 49bd
00000170: 8f5b 633d 2196 6e3c 7508 cdbc 3916 82bd
00000180: ef16 253d 50b0 5f3d d904 9b3c d6f0 813d
00000190: b0b6 563d db42 81bc 75e7 123d 04ab 83bd
000001a0: b64a 22bd e813 943d dfd7 3d3d aeb7 963d
000001b0: 2607 19bd 9dbc 1abd 57a6 1abc 359e 883d
000001c0: 4f3e 6b3d ea3e 49bd a8c6 863d d736 623d
000001d0: b73e af3b 8d05 58bd faff a7bb 89df 8c3c
000001e0: 1c83 7bbd 14aa d53c 0ce5 4d3c f883 b4bc
000001f0: f740 babc c98b c6bc 9b52 28bd a398 53bd
00000200: ff49 813d 5b04 a53d 7bd6 033d 2912 68bc
00000210: 26cb 62bd e728 5abd 3368 0d3d 14a9 253d
00000220: bd57 303c ea64 23bd f553 593d d9b1 70bd
00000230: 80ee f23b 70d0 743d 61c6 453d b835 423d
00000240: 116a ab3c 641b 943d 2050 313d f7ab 633d
00000250: b695 6abd 1556 873d 2234 333d f109 773b
00000260: 1bc0 f4bc 10d2 e3bb 05be 33bd 2504 02bd
00000270: 7925 83bd 22c8 88bd 1c6e a1bc 218b 95bd
00000280: 656f 763d de50 2b3a d4f5 973d 5f1a 3dbd
00000290: 8e56 9b3d fefc b339 7a7c 88bd 6b30 83bc
000002a0: e8f8 9f3d efd0 ccbc 4229 9dbc 8d81 e6bc
000002b0: 420e 41bd 7774 b13b a40d b1bc 2c3a c8bc
000002c0: 1b53 8c3d 075e 62bc 071a 043d 7f3e c0bc
000002d0: 91da 793d 993e fa3b 929c 55bd cd74 38bd
000002e0: 7120 9e3c a224 3a3c 2320 71bd 5009 cabc
000002f0: 0774 723d 9830 2dbd 369a 273d 38b4 6bbd
00000300: d45d ee3c 6842 f9bc 4b9c 5f3d 8502 f53c
00000310: e211 2f3c c4c8 74bd 9f42 793d 618f 03bd
00000320: bfb7 84bd 137c db3c e10f ddbc 1e63 2abd
00000330: c626 68bc 782f 003d f453 00bd 923b 463d
00000340: acaf 70bd 490e 7abd 0747 2c3d 71ed 69bd
00000350: 4271 55bb 95a2 1e3d 8e95 febb ead2 723d
00000360: 2428 9dbd 1112 8dbd bbdb adbc e6cb 493d
00000370: e8f6 9d3d f6e3 e23c 068f a33d fb18 ad3c
00000380: 3223 733d a930 43bd fe0a b3bc 1059 ddbc
00000390: d4ce 40bd 8aec 8a3d 4309 0d3d bcba 91bd
000003a0: 9bbb 59bd 86c5 a6bc f6c1 453d 6300 693d
000003b0: f6b9 5bbd 2d1f 30bd 266e e53c 9063 f3bc
000003c0: c91b 20bd fa02 1dbd 5deb 93bd 2885 813c
000003d0: 5d70 42bd 6e0b f43c 64c8 ee3a 32db 213d
000003e0: 6aa6 41bd 24b0 5d3d 1f57 72bd 0ee4 793d
000003f0: 9df7 243d 5263 143d 2b2b 343d 1fb1 943d
0.04077273 -0.020702507 -0.028927661 0.0035236324 0.022673193 -0.032721065 -0.0030070494 -0.0031619954
-0.04919816 -0.012371394 -0.013088025 0.01535805 0.0056183455 0.05006286 -0.031697042 0.024979712
-0.0702442 0.014647315 -0.059701294 -0.06523448 0.049520757 -0.021577254 -0.035485905 -0.0031797972
-0.0008211525 0.036950063 0.07148839 0.035096794 0.057929125 -0.06563516 -0.007104641 -0.041724116
-0.070631385 -0.0005275092 -0.053338356 -0.03457533 0.042542234 -0.03884794 0.011579214 0.024054019
-0.07141261 -0.0084609445 -0.032740537 0.03194182 -0.031110318 0.07588283 0.039147384 0.015768757
-0.03588526 0.032424454 0.029177625 -0.024082476 -0.05065928 -0.04190339 0.04115503 0.02181966
-9.275343e-05 -0.018391488 -0.057507705 0.03868406 0.02491899 -0.0540212 -0.019501746 -0.01006481
0.039461326 -0.043075424 -0.03779856 -0.07603467 -0.0034331765 0.072205745 -0.052804302 -0.02777601
-0.0028495097 0.06768268 -0.034220178 0.033170365 -0.002988243 -0.065675616 -0.02029136 -0.034807406
-0.04145965 0.04512873 -0.068068475 0.025798155 -0.050571386 0.05245835 0.019388517 -0.050975636
0.06221385 -0.02060846 0.029475829 -0.049132973 0.05550724 0.014562161 -0.025028447 -0.06351895
0.040305074 0.054611504 0.01892321 0.06344764 0.052420318 -0.01577895 0.035865266 -0.06429103
-0.03962203 0.07230359 0.04634845 0.07359253 -0.037360333 -0.037777532 -0.009439073 0.066708006
0.05743247 -0.049132265 0.065808594 0.05522808 0.0053480524 -0.05273967 -0.0051269503 0.017196434
-0.061404333 0.026082076 0.012566816 -0.022035584 -0.022736056 -0.024236577 -0.041094404 -0.051659238
0.06312942 0.08057471 0.032186966 -0.014164486 -0.05536952 -0.053261664 0.0345232 0.04044445
0.010763106 -0.03989116 0.053058583 -0.05876336 0.0074136853 0.059769094 0.048284892 0.04741451
0.0209246 0.07231787 0.043289304 0.05558392 -0.05727168 0.06608216 0.04375089 0.0037695135
-0.02987676 -0.0069525316 -0.04388239 -0.031742234 -0.06403632 -0.06678797 -0.019705825 -0.07301927
0.060164828 0.00065351825 0.07419935 -0.046167728 0.07584868 0.00034330034 -0.06664367 -0.016014298
0.07811147 -0.025001971 -0.019184712 -0.028137947 -0.047132738 0.005415495 -0.02161295 -0.024441801
0.068517886 -0.013816363 0.032251384 -0.0234673 0.060999457 0.0076368568 -0.05215127 -0.045033265
0.019302579 0.011361273 -0.05886854 -0.024662644 0.059192684 -0.04228267 0.04091855 -0.057544917
0.029097475 -0.030427173 0.054592412 0.029908428 0.010685416 -0.059761778 0.06085455 -0.03211916
-0.06480359 0.026792562 -0.02698511 -0.04159843 -0.014169401 0.03129527 -0.031330064 0.048396654
-0.058761284 -0.06104878 0.042059924 -0.057111207 -0.0032568728 0.03872927 -0.007769293 0.059283175
-0.07673672 -0.068882115 -0.02122294 0.04926672 0.07713109 0.02769659 0.07986264 0.021130076
0.059359737 -0.047653828 -0.021855827 -0.027020007 -0.047072247 0.067833975 0.03443266 -0.07115695
-0.05315743 -0.020357858 0.04828068 0.056885134 -0.053644143 -0.04299848 0.028006624 -0.029710561
-0.039088998 -0.038332917 -0.07222626 0.015810564 -0.04747044 0.029790606 0.001821768 0.03951568
-0.047277845 0.05412306 -0.059165116 0.061008506 0.040275205 0.03622753 0.04398648 0.07260346

layer3.conv1.bias f4 [64]
00000000: 2301 223d b2c8 92bb f53b aa3c 5342 493d
00000010: b57a 083d d25e 89bd b4af 4f3d 61f8 72bd
00000020: 1ae0 8bbd 3a44 8fbd b0c4 f1bc 04cd 48bd
00000030: 01fb 04bd 564d 08bd 1f27 d33b f553 743d
00000040: ed35 aabc 730a 2d3d bb48 913d 4c19 8c3d
00000050: 21aa 79bb e698 62bd 1c28 59bd 144e aabc
00000060: dd76 17bd e18c 843c 15d1 30bd 2b19 a9bc
00000070: dbc4 9e3c 6da7 633d e9c1 183d ea98 17bc
00000080: 3725 8bbb 3540 04bd 86a9 5c3d e2c5 653d
00000090: 7b37 763d 4657 e4bc 5673 ee3c 5da5 873d
000000a0: f326 2ebd 10d9 efbc f01c 11bd 2bea 203d
000000b0: 33f3 eabc e8a9 6cbc 6fcb 81bd 9d4a 163c
000000c0: 2404 91bd 2b14 96bc 5869 523c 66d3 cabc
000000d0: 5c30 1abd d2ff 113c cc54 58bc 0e50 7cbd
000000e0: 58f6 8b3d 0ee8 553d 67a1 203d beea d53c
000000f0: 8586 b5bc 3188 043d 7c80 35bd 8970 593d
0.039551865 -0.004479491 0.020780543 0.049135517 0.033320148 -0.06707539 0.050704673 -0.059318904
-0.06829853 -0.06995435 -0.029512733 -0.049023643 -0.03246594 -0.03327688 0.0064438726 0.05965038
-0.020777667 0.042246293 0.0709395 0.068407625 -0.003809579 -0.055321597 -0.053016767 -0.020789184
-0.03697859 0.016180458 -0.043168146 -0.020641884 0.019380977 0.05557959 0.037294302 -0.009252766
-0.0042463797 -0.032287795 0.053872608 0.05609692 0.060111504 -0.027873646 0.02910773 0.066233374
-0.042517614 -0.029278308 -0.035427988 0.03928582 -0.02868042 -0.014444806 -0.0633763 0.009173063
-0.07080868 -0.018320164 0.012842499 -0.024759006 -0.037643775 0.00891109 -0.013203811 -0.061599784
0.06834096 0.052223258 0.039216425 0.02611291 -0.02215887 0.032356445 -0.044311985 0.053085838
